…
-teach

Namespace(algo='ppo', argmax=False, batch_size=256, clip_eps=0.2, discount=0.99, entropy_coef=0.01, env='MiniGrid-TeacherDoorKey-5x5-v0', episodes=100, epochs=4, frames=80000, frames_per_proc=None, gae_lambda=0.95, log_interval=1, lr=0.001, max_grad_norm=0.5, mem=False, model='testh', optim_alpha=0.99, optim_eps=1e-08, procs=16, recurrence=1, save_interval=10, seed=1, teach=True, text=False, value_loss_coef=0.5, worst_episodes_to_show=10)

Device: cpu

Environments loaded

Training status loaded

Observations preprocessor loaded
Model loaded

ACModel(
  (image_conv): Sequential(
    (0): Conv2d(3, 16, kernel_size=(2, 2), stride=(1, 1))
    (1): ReLU()
    (2): MaxPool2d(kernel_size=(2, 2), stride=(2, 2), padding=0, dilation=1, ceil_mode=False)
    (3): Conv2d(16, 32, kernel_size=(2, 2), stride=(1, 1))
    (4): ReLU()
    (5): Conv2d(32, 64, kernel_size=(2, 2), stride=(1, 1))
    (6): ReLU()
  )
  (actor): Sequential(
    (0): Linear(in_features=64, out_features=64, bias=True)
    (1): Tanh()
    (2): Linear(in_features=64, out_features=7, bias=True)
  )
  (critic): Sequential(
    (0): Linear(in_features=64, out_features=64, bias=True)
    (1): Tanh()
    (2): Linear(in_features=64, out_features=1, bias=True)
  )
)

Optimizer loaded

/Users/anandsranjan/Desktop/AsymmPlay/project/torch/rl-starter-files/scripts/train.py --algo ppo --env MiniGrid-TeacherDoorKey-5x5-v0 --save-interval 10 --frames 80000 --procs 16 --model testh

Namespace(algo='ppo', argmax=False, batch_size=256, clip_eps=0.2, discount=0.99, entropy_coef=0.01, env='MiniGrid-TeacherDoorKey-5x5-v0', episodes=100, epochs=4, frames=80000, frames_per_proc=None, gae_lambda=0.95, log_interval=1, lr=0.001, max_grad_norm=0.5, mem=False, model='testh', optim_alpha=0.99, optim_eps=1e-08, procs=16, recurrence=1, save_interval=10, seed=1, teach=False, text=False, value_loss_coef=0.5, worst_episodes_to_show=10)

Device: cpu

Environments loaded

Training status loaded

Observations preprocessor loaded
Model loaded

ACModel(
  (image_conv): Sequential(
    (0): Conv2d(3, 16, kernel_size=(2, 2), stride=(1, 1))
    (1): ReLU()
    (2): MaxPool2d(kernel_size=(2, 2), stride=(2, 2), padding=0, dilation=1, ceil_mode=False)
    (3): Conv2d(16, 32, kernel_size=(2, 2), stride=(1, 1))
    (4): ReLU()
    (5): Conv2d(32, 64, kernel_size=(2, 2), stride=(1, 1))
    (6): ReLU()
  )
  (actor): Sequential(
    (0): Linear(in_features=64, out_features=64, bias=True)
    (1): Tanh()
    (2): Linear(in_features=64, out_features=7, bias=True)
  )
  (critic): Sequential(
    (0): Linear(in_features=64, out_features=64, bias=True)
    (1): Tanh()
    (2): Linear(in_features=64, out_features=1, bias=True)
  )
)

Optimizer loaded

/Users/anandsranjan/Desktop/AsymmPlay/project/torch/rl-starter-files/scripts/train.py --algo ppo --env MiniGrid-TeacherDoorKey-10x10-v0 --save-interval 10 --frames 80000 --procs 16 --model testh

Namespace(algo='ppo', argmax=False, batch_size=256, clip_eps=0.2, discount=0.99, entropy_coef=0.01, env='MiniGrid-TeacherDoorKey-10x10-v0', episodes=100, epochs=4, frames=80000, frames_per_proc=None, gae_lambda=0.95, log_interval=1, lr=0.001, max_grad_norm=0.5, mem=False, model='testh', optim_alpha=0.99, optim_eps=1e-08, procs=16, recurrence=1, save_interval=10, seed=1, teach=False, text=False, value_loss_coef=0.5, worst_episodes_to_show=10)

Device: cpu

Environments loaded

Training status loaded

Observations preprocessor loaded
Model loaded

ACModel(
  (image_conv): Sequential(
    (0): Conv2d(3, 16, kernel_size=(2, 2), stride=(1, 1))
    (1): ReLU()
    (2): MaxPool2d(kernel_size=(2, 2), stride=(2, 2), padding=0, dilation=1, ceil_mode=False)
    (3): Conv2d(16, 32, kernel_size=(2, 2), stride=(1, 1))
    (4): ReLU()
    (5): Conv2d(32, 64, kernel_size=(2, 2), stride=(1, 1))
    (6): ReLU()
  )
  (actor): Sequential(
    (0): Linear(in_features=64, out_features=64, bias=True)
    (1): Tanh()
    (2): Linear(in_features=64, out_features=7, bias=True)
  )
  (critic): Sequential(
    (0): Linear(in_features=64, out_features=64, bias=True)
    (1): Tanh()
    (2): Linear(in_features=64, out_features=1, bias=True)
  )
)

Optimizer loaded

U 1 | F 002048 | FPS 3112 | D 0 | rR:μσmM 0.41 0.47 0.00 0.97 | F:μσmM 27.9 36.0 0.0 101.0 | H 1.913 | V -0.048 | pL -0.075 | vL 0.025 | ∇ 0.081
U 2 | F 004096 | FPS 3269 | D 1 | rR:μσmM 0.62 0.42 0.00 0.97 | F:μσmM 74.2 73.3 0.0 217.0 | H 1.919 | V -0.011 | pL -0.038 | vL 0.011 | ∇ 0.044
U 3 | F 006144 | FPS 3300 | D 1 | rR:μσmM 0.86 0.10 0.69 0.97 | F:μσmM 157.0 106.0 34.0 349.0 | H 1.914 | V 0.004 | pL -0.032 | vL 0.008 | ∇ 0.046
…
