…
Namespace(algo='ppo', argmax=False, batch_size=256, clip_eps=0.2, discount=0.99, entropy_coef=0.01, env='MiniGrid-TeacherDoorKey-5x5-v0', episodes=100, epochs=4, frames=80000, frames_per_proc=None, gae_lambda=0.95, log_interval=1, lr=0.001, max_grad_norm=0.5, mem=False, model='test_teachB_1', optim_alpha=0.99, optim_eps=1e-08, procs=16, recurrence=1, save_interval=10, seed=1, teach=True, text=False, value_loss_coef=0.5, worst_episodes_to_show=10)

Device: cpu

Environments loaded

Training status loaded

Observations preprocessor loaded
Model loaded

ACModel(
  (image_conv): Sequential(
    (0): Conv2d(3, 16, kernel_size=(2, 2), stride=(1, 1))
    (1): ReLU()
    (2): MaxPool2d(kernel_size=(2, 2), stride=(2, 2), padding=0, dilation=1, ceil_mode=False)
    (3): Conv2d(16, 32, kernel_size=(2, 2), stride=(1, 1))
    (4): ReLU()
    (5): Conv2d(32, 64, kernel_size=(2, 2), stride=(1, 1))
    (6): ReLU()
  )
  (actor): Sequential(
    (0): Linear(in_features=64, out_features=64, bias=True)
    (1): Tanh()
    (2): Linear(in_features=64, out_features=7, bias=True)
  )
  (critic): Sequential(
    (0): Linear(in_features=64, out_features=64, bias=True)
    (1): Tanh()
    (2): Linear(in_features=64, out_features=1, bias=True)
  )
)

Optimizer loaded

/Users/anandsranjan/Desktop/AsymmPlay/project/torch/rl-starter-files/scripts/train.py --algo ppo --env MiniGrid-TeacherDoorKey-5x5-v0 --save-interval 10 --frames 80000 --procs 16 --model test_teachB_1 --teach

Namespace(algo='ppo', argmax=False, batch_size=256, clip_eps=0.2, discount=0.99, entropy_coef=0.01, env='MiniGrid-TeacherDoorKey-5x5-v0', episodes=100, epochs=4, frames=80000, frames_per_proc=None, gae_lambda=0.95, log_interval=1, lr=0.001, max_grad_norm=0.5, mem=False, model='test_teachB_1', optim_alpha=0.99, optim_eps=1e-08, procs=16, recurrence=1, save_interval=10, seed=1, teach=True, text=False, value_loss_coef=0.5, worst_episodes_to_show=10)

Device: cpu

Environments loaded

Training status loaded

Observations preprocessor loaded
Model loaded

ACModel(
  (image_conv): Sequential(
    (0): Conv2d(3, 16, kernel_size=(2, 2), stride=(1, 1))
    (1): ReLU()
    (2): MaxPool2d(kernel_size=(2, 2), stride=(2, 2), padding=0, dilation=1, ceil_mode=False)
    (3): Conv2d(16, 32, kernel_size=(2, 2), stride=(1, 1))
    (4): ReLU()
    (5): Conv2d(32, 64, kernel_size=(2, 2), stride=(1, 1))
    (6): ReLU()
  )
  (actor): Sequential(
    (0): Linear(in_features=64, out_features=64, bias=True)
    (1): Tanh()
    (2): Linear(in_features=64, out_features=7, bias=True)
  )
  (critic): Sequential(
    (0): Linear(in_features=64, out_features=64, bias=True)
    (1): Tanh()
    (2): Linear(in_features=64, out_features=1, bias=True)
  )
)

Optimizer loaded

/Users/anandsranjan/Desktop/AsymmPlay/project/torch/rl-starter-files/scripts/train.py --algo ppo --env MiniGrid-TeacherDoorKey-10x10-v0 --save-interval 10 --frames 80000 --procs 16 --model test_teachB_1 --teach

Namespace(algo='ppo', argmax=False, batch_size=256, clip_eps=0.2, discount=0.99, entropy_coef=0.01, env='MiniGrid-TeacherDoorKey-10x10-v0', episodes=100, epochs=4, frames=80000, frames_per_proc=None, gae_lambda=0.95, log_interval=1, lr=0.001, max_grad_norm=0.5, mem=False, model='test_teachB_1', optim_alpha=0.99, optim_eps=1e-08, procs=16, recurrence=1, save_interval=10, seed=1, teach=True, text=False, value_loss_coef=0.5, worst_episodes_to_show=10)

Device: cpu

Environments loaded

Training status loaded

Observations preprocessor loaded
Model loaded

ACModel(
  (image_conv): Sequential(
    (0): Conv2d(3, 16, kernel_size=(2, 2), stride=(1, 1))
    (1): ReLU()
    (2): MaxPool2d(kernel_size=(2, 2), stride=(2, 2), padding=0, dilation=1, ceil_mode=False)
    (3): Conv2d(16, 32, kernel_size=(2, 2), stride=(1, 1))
    (4): ReLU()
    (5): Conv2d(32, 64, kernel_size=(2, 2), stride=(1, 1))
    (6): ReLU()
  )
  (actor): Sequential(
    (0): Linear(in_features=64, out_features=64, bias=True)
    (1): Tanh()
    (2): Linear(in_features=64, out_features=7, bias=True)
  )
  (critic): Sequential(
    (0): Linear(in_features=64, out_features=64, bias=True)
    (1): Tanh()
    (2): Linear(in_features=64, out_features=1, bias=True)
  )
)

Optimizer loaded

U 1 | F 002048 | FPS 3244 | D 40 | rR:μσmM 0.98 0.02 0.93 0.99 | F:μσmM 23.7 16.7 7.0 78.0 | H 1.572 | V 0.588 | pL 0.011 | vL 0.005 | ∇ 0.096
U 2 | F 004096 | FPS 3160 | D 41 | rR:μσmM 0.96 0.03 0.86 0.99 | F:μσmM 43.3 34.2 15.0 159.0 | H 1.773 | V 0.424 | pL 0.068 | vL 0.001 | ∇ 0.081
U 3 | F 006144 | FPS 3137 | D 42 | rR:μσmM 0.95 0.05 0.78 0.99 | F:μσmM 56.6 58.0 15.0 239.0 | H 1.809 | V 0.365 | pL 0.064 | vL 0.001 | ∇ 0.061
…
Namespace(algo='ppo', argmax=False, batch_size=256, clip_eps=0.2, discount=0.99, entropy_coef=0.01, env='MiniGrid-TeacherDoorKey-10x10-v0', episodes=100, epochs=4, frames=80000, frames_per_proc=None, gae_lambda=0.95, log_interval=1, lr=0.001, max_grad_norm=0.5, mem=False, model='test_teachB_1', optim_alpha=0.99, optim_eps=1e-08, procs=16, recurrence=1, save_interval=10, seed=1, teach=False, text=False, value_loss_coef=0.5, worst_episodes_to_show=10)

Device: cpu

Environments loaded

Training status loaded

Observations preprocessor loaded
Model loaded

ACModel(
  (image_conv): Sequential(
    (0): Conv2d(3, 16, kernel_size=(2, 2), stride=(1, 1))
    (1): ReLU()
    (2): MaxPool2d(kernel_size=(2, 2), stride=(2, 2), padding=0, dilation=1, ceil_mode=False)
    (3): Conv2d(16, 32, kernel_size=(2, 2), stride=(1, 1))
    (4): ReLU()
    (5): Conv2d(32, 64, kernel_size=(2, 2), stride=(1, 1))
    (6): ReLU()
  )
  (actor): Sequential(
    (0): Linear(in_features=64, out_features=64, bias=True)
    (1): Tanh()
    (2): Linear(in_features=64, out_features=7, bias=True)
  )
  (critic): Sequential(
    (0): Linear(in_features=64, out_features=64, bias=True)
    (1): Tanh()
    (2): Linear(in_features=64, out_features=1, bias=True)
  )
)

Optimizer loaded

