…
h

Namespace(algo='ppo', argmax=False, batch_size=256, clip_eps=0.2, discount=0.99, entropy_coef=0.01, env='MiniGrid-TeacherDoorKey-5x5-v0', episodes=100, epochs=4, frames=80000, frames_per_proc=None, gae_lambda=0.95, log_interval=1, lr=0.001, max_grad_norm=0.5, mem=False, model='test_teach', optim_alpha=0.99, optim_eps=1e-08, procs=16, recurrence=1, save_interval=10, seed=1, teach=True, text=False, value_loss_coef=0.5, worst_episodes_to_show=10)

Device: cpu

Environments loaded

Training status loaded

Observations preprocessor loaded
Model loaded

ACModel(
  (image_conv): Sequential(
    (0): Conv2d(3, 16, kernel_size=(2, 2), stride=(1, 1))
    (1): ReLU()
    (2): MaxPool2d(kernel_size=(2, 2), stride=(2, 2), padding=0, dilation=1, ceil_mode=False)
    (3): Conv2d(16, 32, kernel_size=(2, 2), stride=(1, 1))
    (4): ReLU()
    (5): Conv2d(32, 64, kernel_size=(2, 2), stride=(1, 1))
    (6): ReLU()
  )
  (actor): Sequential(
    (0): Linear(in_features=64, out_features=64, bias=True)
    (1): Tanh()
    (2): Linear(in_features=64, out_features=7, bias=True)
  )
  (critic): Sequential(
    (0): Linear(in_features=64, out_features=64, bias=True)
    (1): Tanh()
    (2): Linear(in_features=64, out_features=1, bias=True)
  )
)

Optimizer loaded

U 1 | F 002048 | FPS 3318 | D 15 | rR:μσmM 0.00 0.00 0.00 0.00 | F:μσmM 0.0 0.0 0 0 | H 1.633 | V 0.320 | pL 0.055 | vL 0.001 | ∇ 0.051
U 2 | F 004096 | FPS 3226 | D 16 | rR:μσmM 0.00 0.00 0.00 0.00 | F:μσmM 250.0 0.0 250.0 250.0 | H 1.741 | V 0.227 | pL 0.085 | vL 0.004 | ∇ 0.062
U 3 | F 006144 | FPS 3219 | D 16 | rR:μσmM 0.00 0.00 0.00 0.00 | F:μσmM 250.0 0.0 250.0 250.0 | H 1.821 | V 0.199 | pL 0.036 | vL 0.000 | ∇ 0.019
…
/Users/anandsranjan/Desktop/AsymmPlay/project/torch/rl-starter-files/scripts/train.py --algo ppo --env MiniGrid-TeacherDoorKey-5x5-v0 --save-interval 10 --frames 80000 --procs 16 --model test_teach --teach

Namespace(algo='ppo', argmax=False, batch_size=256, clip_eps=0.2, discount=0.99, entropy_coef=0.01, env='MiniGrid-TeacherDoorKey-5x5-v0', episodes=100, epochs=4, frames=80000, frames_per_proc=None, gae_lambda=0.95, log_interval=1, lr=0.001, max_grad_norm=0.5, mem=False, model='test_teach', optim_alpha=0.99, optim_eps=1e-08, procs=16, recurrence=1, save_interval=10, seed=1, teach=True, text=False, value_loss_coef=0.5, worst_episodes_to_show=10)

Device: cpu

Environments loaded

Training status loaded

Observations preprocessor loaded
Model loaded

ACModel(
  (image_conv): Sequential(
    (0): Conv2d(3, 16, kernel_size=(2, 2), stride=(1, 1))
    (1): ReLU()
    (2): MaxPool2d(kernel_size=(2, 2), stride=(2, 2), padding=0, dilation=1, ceil_mode=False)
    (3): Conv2d(16, 32, kernel_size=(2, 2), stride=(1, 1))
    (4): ReLU()
    (5): Conv2d(32, 64, kernel_size=(2, 2), stride=(1, 1))
    (6): ReLU()
  )
  (actor): Sequential(
    (0): Linear(in_features=64, out_features=64, bias=True)
    (1): Tanh()
    (2): Linear(in_features=64, out_features=7, bias=True)
  )
  (critic): Sequential(
    (0): Linear(in_features=64, out_features=64, bias=True)
    (1): Tanh()
    (2): Linear(in_features=64, out_features=1, bias=True)
  )
)

Optimizer loaded

/Users/anandsranjan/Desktop/AsymmPlay/project/torch/rl-starter-files/scripts/train.py --algo ppo --env MiniGrid-TeacherDoorKey-10x10-v0 --save-interval 10 --frames 80000 --procs 16 --model test_teach --teach

Namespace(algo='ppo', argmax=False, batch_size=256, clip_eps=0.2, discount=0.99, entropy_coef=0.01, env='MiniGrid-TeacherDoorKey-10x10-v0', episodes=100, epochs=4, frames=80000, frames_per_proc=None, gae_lambda=0.95, log_interval=1, lr=0.001, max_grad_norm=0.5, mem=False, model='test_teach', optim_alpha=0.99, optim_eps=1e-08, procs=16, recurrence=1, save_interval=10, seed=1, teach=True, text=False, value_loss_coef=0.5, worst_episodes_to_show=10)

Device: cpu

Environments loaded

Training status loaded

Observations preprocessor loaded
Model loaded

ACModel(
  (image_conv): Sequential(
    (0): Conv2d(3, 16, kernel_size=(2, 2), stride=(1, 1))
    (1): ReLU()
    (2): MaxPool2d(kernel_size=(2, 2), stride=(2, 2), padding=0, dilation=1, ceil_mode=False)
    (3): Conv2d(16, 32, kernel_size=(2, 2), stride=(1, 1))
    (4): ReLU()
    (5): Conv2d(32, 64, kernel_size=(2, 2), stride=(1, 1))
    (6): ReLU()
  )
  (actor): Sequential(
    (0): Linear(in_features=64, out_features=64, bias=True)
    (1): Tanh()
    (2): Linear(in_features=64, out_features=7, bias=True)
  )
  (critic): Sequential(
    (0): Linear(in_features=64, out_features=64, bias=True)
    (1): Tanh()
    (2): Linear(in_features=64, out_features=1, bias=True)
  )
)

Optimizer loaded

/Users/anandsranjan/Desktop/AsymmPlay/project/torch/rl-starter-files/scripts/train.py --algo ppo --env MiniGrid-TeacherDoorKey-5x5-v0 --save-interval 10 --frames 80000 --procs 16 --model test_teach --teach

Namespace(algo='ppo', argmax=False, batch_size=256, clip_eps=0.2, discount=0.99, entropy_coef=0.01, env='MiniGrid-TeacherDoorKey-5x5-v0', episodes=100, epochs=4, frames=80000, frames_per_proc=None, gae_lambda=0.95, log_interval=1, lr=0.001, max_grad_norm=0.5, mem=False, model='test_teach', optim_alpha=0.99, optim_eps=1e-08, procs=16, recurrence=1, save_interval=10, seed=1, teach=True, text=False, value_loss_coef=0.5, worst_episodes_to_show=10)

Device: cpu

Environments loaded

Training status loaded

Observations preprocessor loaded
Model loaded

ACModel(
  (image_conv): Sequential(
    (0): Conv2d(3, 16, kernel_size=(2, 2), stride=(1, 1))
    (1): ReLU()
    (2): MaxPool2d(kernel_size=(2, 2), stride=(2, 2), padding=0, dilation=1, ceil_mode=False)
    (3): Conv2d(16, 32, kernel_size=(2, 2), stride=(1, 1))
    (4): ReLU()
    (5): Conv2d(32, 64, kernel_size=(2, 2), stride=(1, 1))
    (6): ReLU()
  )
  (actor): Sequential(
    (0): Linear(in_features=64, out_features=64, bias=True)
    (1): Tanh()
    (2): Linear(in_features=64, out_features=7, bias=True)
  )
  (critic): Sequential(
    (0): Linear(in_features=64, out_features=64, bias=True)
    (1): Tanh()
    (2): Linear(in_features=64, out_features=1, bias=True)
  )
)

Optimizer loaded

/Users/anandsranjan/Desktop/AsymmPlay/project/torch/rl-starter-files/scripts/train.py --algo ppo --env MiniGrid-TeacherDoorKey-5x5-v0 --save-interval 10 --frames 80000 --procs 1 --model test_teach --teach

Namespace(algo='ppo', argmax=False, batch_size=256, clip_eps=0.2, discount=0.99, entropy_coef=0.01, env='MiniGrid-TeacherDoorKey-5x5-v0', episodes=100, epochs=4, frames=80000, frames_per_proc=None, gae_lambda=0.95, log_interval=1, lr=0.001, max_grad_norm=0.5, mem=False, model='test_teach', optim_alpha=0.99, optim_eps=1e-08, procs=1, recurrence=1, save_interval=10, seed=1, teach=True, text=False, value_loss_coef=0.5, worst_episodes_to_show=10)

Device: cpu

Environments loaded

Training status loaded

Observations preprocessor loaded
Model loaded

ACModel(
  (image_conv): Sequential(
    (0): Conv2d(3, 16, kernel_size=(2, 2), stride=(1, 1))
    (1): ReLU()
    (2): MaxPool2d(kernel_size=(2, 2), stride=(2, 2), padding=0, dilation=1, ceil_mode=False)
    (3): Conv2d(16, 32, kernel_size=(2, 2), stride=(1, 1))
    (4): ReLU()
    (5): Conv2d(32, 64, kernel_size=(2, 2), stride=(1, 1))
    (6): ReLU()
  )
  (actor): Sequential(
    (0): Linear(in_features=64, out_features=64, bias=True)
    (1): Tanh()
    (2): Linear(in_features=64, out_features=7, bias=True)
  )
  (critic): Sequential(
    (0): Linear(in_features=64, out_features=64, bias=True)
    (1): Tanh()
    (2): Linear(in_features=64, out_features=1, bias=True)
  )
)

Optimizer loaded

/Users/logancross/Documents/DeepRL/AsymmPlay/project/torch/rl-starter-files/scripts/train.py --algo ppo --env MiniGrid-TeacherDoorKey-5x5-v0 --save-interval 10 --frames 80000 --procs 16 --model test_teach --teach

Namespace(algo='ppo', argmax=False, batch_size=256, clip_eps=0.2, discount=0.99, entropy_coef=0.01, env='MiniGrid-TeacherDoorKey-5x5-v0', episodes=10, epochs=4, frames=80000, frames_per_proc=None, gae_lambda=0.95, log_interval=1, lr=0.001, max_grad_norm=0.5, mem=False, model='test_teach', optim_alpha=0.99, optim_eps=1e-08, procs=16, recurrence=1, save_interval=10, seed=1, teach=True, text=False, value_loss_coef=0.5, worst_episodes_to_show=10)

Device: {device}

Environments loaded

Training status loaded

Observations preprocessor loaded
Model loaded

ACModel(
  (image_conv): Sequential(
    (0): Conv2d(3, 16, kernel_size=(2, 2), stride=(1, 1))
    (1): ReLU()
    (2): MaxPool2d(kernel_size=(2, 2), stride=(2, 2), padding=0, dilation=1, ceil_mode=False)
    (3): Conv2d(16, 32, kernel_size=(2, 2), stride=(1, 1))
    (4): ReLU()
    (5): Conv2d(32, 64, kernel_size=(2, 2), stride=(1, 1))
    (6): ReLU()
  )
  (actor): Sequential(
    (0): Linear(in_features=64, out_features=64, bias=True)
    (1): Tanh()
    (2): Linear(in_features=64, out_features=7, bias=True)
  )
  (critic): Sequential(
    (0): Linear(in_features=64, out_features=64, bias=True)
    (1): Tanh()
    (2): Linear(in_features=64, out_features=1, bias=True)
  )
)

Optimizer loaded

